…
2025-11-27 17:20:00,010 - INFO - cuda:1 is a NVIDIA A30
2025-11-27 17:20:00,221 - INFO - Start training
2025-11-27 17:20:00,221 - INFO - Learning
============================================================================================================================================
Layer (type:depth-idx)                   Kernel Shape              Input Shape               Output Shape              Param #
============================================================================================================================================
TartesEmulator                           --                        [1, 6, 50]                [1, 1]                    --
├─Conv1d: 1-1                            [3]                       [1, 6, 50]                [1, 32, 50]               608
├─BatchNorm1d: 1-2                       --                        [1, 32, 50]               [1, 32, 50]               64
├─Conv1d: 1-3                            [5]                       [1, 32, 50]               [1, 64, 50]               10,304
├─BatchNorm1d: 1-4                       --                        [1, 64, 50]               [1, 64, 50]               128
├─Conv1d: 1-5                            [3]                       [1, 64, 50]               [1, 128, 50]              24,704
├─BatchNorm1d: 1-6                       --                        [1, 128, 50]              [1, 128, 50]              256
├─Conv1d: 1-7                            [5]                       [1, 128, 50]              [1, 256, 50]              164,096
├─BatchNorm1d: 1-8                       --                        [1, 256, 50]              [1, 256, 50]              512
├─Conv1d: 1-9                            [3]                       [1, 256, 50]              [1, 512, 50]              393,728
├─BatchNorm1d: 1-10                      --                        [1, 512, 50]              [1, 512, 50]              1,024
├─AdaptiveMaxPool1d: 1-11                --                        [1, 512, 50]              [1, 512, 1]               --
├─Flatten: 1-12                          --                        [1, 512, 1]               [1, 512]                  --
├─Sequential: 1-13                       --                        [1, 512]                  [1, 64]                   --
│    └─Linear: 2-1                       --                        [1, 512]                  [1, 512]                  262,656
│    └─ReLU: 2-2                         --                        [1, 512]                  [1, 512]                  --
│    └─Linear: 2-3                       --                        [1, 512]                  [1, 256]                  131,328
│    └─ReLU: 2-4                         --                        [1, 256]                  [1, 256]                  --
│    └─Linear: 2-5                       --                        [1, 256]                  [1, 128]                  32,896
│    └─ReLU: 2-6                         --                        [1, 128]                  [1, 128]                  --
│    └─Linear: 2-7                       --                        [1, 128]                  [1, 64]                   8,256
│    └─ReLU: 2-8                         --                        [1, 64]                   [1, 64]                   --
├─Sequential: 1-14                       --                        [1, 3]                    [1, 32]                   --
│    └─Linear: 2-9                       --                        [1, 3]                    [1, 16]                   64
│    └─ReLU: 2-10                        --                        [1, 16]                   [1, 16]                   --
│    └─Linear: 2-11                      --                        [1, 16]                   [1, 32]                   544
│    └─ReLU: 2-12                        --                        [1, 32]                   [1, 32]                   --
│    └─Linear: 2-13                      --                        [1, 32]                   [1, 32]                   1,056
│    └─ReLU: 2-14                        --                        [1, 32]                   [1, 32]                   --
├─Linear: 1-15                           --                        [1, 96]                   [1, 256]                  24,832
├─ReLU: 1-16                             --                        [1, 256]                  [1, 256]                  --
├─Linear: 1-17                           --                        [1, 256]                  [1, 128]                  32,896
├─ReLU: 1-18                             --                        [1, 128]                  [1, 128]                  --
├─Linear: 1-19                           --                        [1, 128]                  [1, 64]                   8,256
├─ReLU: 1-20                             --                        [1, 64]                   [1, 64]                   --
├─Linear: 1-21                           --                        [1, 64]                   [1, 32]                   2,080
├─ReLU: 1-22                             --                        [1, 32]                   [1, 32]                   --
├─Linear: 1-23                           --                        [1, 32]                   [1, 16]                   528
├─ReLU: 1-24                             --                        [1, 16]                   [1, 16]                   --
├─Linear: 1-25                           --                        [1, 16]                   [1, 1]                    17
├─Sigmoid: 1-26                          --                        [1, 1]                    [1, 1]                    --
============================================================================================================================================
Total params: 1,100,833
Trainable params: 1,100,833
Non-trainable params: 0
Total mult-adds (Units.MEGABYTES): 30.18
============================================================================================================================================
Input size (MB): 0.00
…
