============================================================================================================================================
Layer (type:depth-idx)                   Kernel Shape              Input Shape               Output Shape              Param #
============================================================================================================================================
TartesEmulator                           --                        [1, 6, 50]                [1, 1]                    --
├─Conv1d: 1-1                            [3]                       [1, 6, 50]                [1, 32, 50]               608
├─Conv1d: 1-2                            [3]                       [1, 32, 50]               [1, 32, 50]               3,104
├─MaxPool1d: 1-3                         2                         [1, 32, 50]               [1, 32, 25]               --
├─Conv1d: 1-4                            [3]                       [1, 32, 25]               [1, 64, 25]               6,208
├─Conv1d: 1-5                            [3]                       [1, 64, 25]               [1, 64, 25]               12,352
├─MaxPool1d: 1-6                         5                         [1, 64, 25]               [1, 64, 5]                --
├─Conv1d: 1-7                            [3]                       [1, 64, 5]                [1, 128, 5]               24,704
├─Conv1d: 1-8                            [3]                       [1, 128, 5]               [1, 128, 5]               49,280
├─AdaptiveMaxPool1d: 1-9                 --                        [1, 128, 5]               [1, 128, 1]               --
├─Flatten: 1-10                          --                        [1, 128, 1]               [1, 128]                  --
├─Sequential: 1-11                       --                        [1, 128]                  [1, 32]                   --
│    └─Linear: 2-1                       --                        [1, 128]                  [1, 128]                  16,512
│    └─ELU: 2-2                          --                        [1, 128]                  [1, 128]                  --
│    └─Linear: 2-3                       --                        [1, 128]                  [1, 64]                   8,256
│    └─ELU: 2-4                          --                        [1, 64]                   [1, 64]                   --
│    └─Linear: 2-5                       --                        [1, 64]                   [1, 32]                   2,080
│    └─ELU: 2-6                          --                        [1, 32]                   [1, 32]                   --
├─Sequential: 1-12                       --                        [1, 3]                    [1, 32]                   --
│    └─Linear: 2-7                       --                        [1, 3]                    [1, 16]                   64
│    └─ELU: 2-8                          --                        [1, 16]                   [1, 16]                   --
│    └─Linear: 2-9                       --                        [1, 16]                   [1, 32]                   544
│    └─ELU: 2-10                         --                        [1, 32]                   [1, 32]                   --
├─Linear: 1-13                           --                        [1, 64]                   [1, 256]                  16,640
├─ELU: 1-14                              --                        [1, 256]                  [1, 256]                  --
├─Linear: 1-15                           --                        [1, 256]                  [1, 256]                  65,792
├─ELU: 1-16                              --                        [1, 256]                  [1, 256]                  --
├─Dropout: 1-17                          --                        [1, 256]                  [1, 256]                  --
├─Linear: 1-18                           --                        [1, 256]                  [1, 128]                  32,896
├─ELU: 1-19                              --                        [1, 128]                  [1, 128]                  --
├─Dropout: 1-20                          --                        [1, 128]                  [1, 128]                  --
├─Linear: 1-21                           --                        [1, 128]                  [1, 64]                   8,256
├─ELU: 1-22                              --                        [1, 64]                   [1, 64]                   --
├─Dropout: 1-23                          --                        [1, 64]                   [1, 64]                   --
├─Linear: 1-24                           --                        [1, 64]                   [1, 32]                   2,080
├─ELU: 1-25                              --                        [1, 32]                   [1, 32]                   --
├─Linear: 1-26                           --                        [1, 32]                   [1, 1]                    33
├─Sigmoid: 1-27                          --                        [1, 1]                    [1, 1]                    --
============================================================================================================================================
Total params: 249,409
Trainable params: 249,409
Non-trainable params: 0
Total mult-adds (Units.MEGABYTES): 1.17
============================================================================================================================================
Input size (MB): 0.00
…
